HealBot/data_rnn.pth (torch, 34706 bytes, 6 tensors)

l1.weight f4 [16, 312]
00000000: 7df0 0d3f a3fc f7bd b4e9 38be ce6d 2d3f
00000010: 330e eb3e 3fd6 af3e b606 2e3f 04ac 3b3e
00000020: a24d 2cbf 2c5b 1f3f 80a0 793f bbc6 363f
00000030: ea40 8b3e 402e 113f 7d0e 463e 0a9c 8b3e
00000040: 6c45 d1bd 5d56 d03e ab31 333f 513b 863e
00000050: cc2e 53be 7ada adbd eca3 5a3f 3dff f0be
00000060: baf8 31bf c743 09bd 39ca 293f c8ec 15be
00000070: da2e a6be e880 ed3d 6c58 8f3e dddd 203f
00000080: 0483 323e ad20 843e b101 f73d 338d 23bf
00000090: 396e b23e 769d b6be 17cc 4fbe 939f 813e
000000a0: 0b91 4bbf 9e5b 133d b2ef ed3e ee81 6dbe
000000b0: 0ac1 833d 0cc0 86be 30ba 1abd 7bde 40bf
000000c0: 37c2 e8be 1542 5ebd 07d4 9cbc 76b6 543f
000000d0: 3e3a 80be 0025 c8be 803d b13e 8cab 6d3e
000000e0: 0819 e2be 9f92 2d3f 1017 e93c 9588 043f
000000f0: 3879 733d 2170 21be e70e afbd dc23 1b3f
00000100: a02a a63e 9152 053e 72e4 b63e ec6a cb3d
00000110: 1651 3f3f c67b 87be c48a 8c3e 39f6 83be
00000120: cdb7 1ebe b473 7cbe c755 21be 8be7 053f
00000130: 49f0 003f 332d 4d3f 1e22 2b3f 9f8b 0d3f
00000140: 30bb 97be 22e0 82bd 6775 423e c409 f33e
00000150: ebde 2f3e 0aa2 63bd e99f 083f d93b f8bd
00000160: add5 30be 6fec 903d 5757 823d 5ed2 8f3f
00000170: 29ed b13e 42b7 dbbe 7340 f63b e568 1d3d
00000180: 9e33 b63e 6b85 453e 1241 4b3c deac cbbe
00000190: cb0d ed3e d581 6b3e ca4e 34bf f343 833e
000001a0: e725 853e 561b 7bbe 4a47 cd3e 5788 273f
000001b0: 2dce 4abf 8aa0 bf3e e7ef bfbe bb7b d7bd
000001c0: ed81 5abd 8ce2 863e 20fb 183f e600 c93e
000001d0: d09b 613d 93fe 0f3f d5c6 153f 2f61 4ebe
000001e0: 71db 613f 41a6 a93c df5e 98be 7dbe 313f
000001f0: 05a3 43be cf33 bdbe 63a2 ec3e a8f7 b8be
00000200: 9525 a73e 2514 f23e 6b02 223e a06b 683e
00000210: 13a3 5b3e 0c37 8fbe bac5 8a3c 57d9 80be
00000220: 8cd0 12bf d1a7 063e 8c8e c83e df28 cb3e
00000230: 31ef 1f3f 66bd 783f b791 543f 7f85 373f
00000240: b26c be3e bfcc c6be cedc ecbd f21e a9bc
00000250: a1f2 5ebe a17a d9be 3e7b 4d3e d979 813e
00000260: 13fd fe3e 7fef 9b3e 8840 19bd 3432 8cbe
00000270: 278e 553f 3b9b 9f3e 7119 603e 8835 ff3e
00000280: 2e42 503d 14c0 b13e f447 75be 2879 853e
00000290: 85c2 3e3e 3c13 803e def5 d1bd da3b 85bd
000002a0: bb2c 633e deb0 85be 7f0d 0c3f 0b4c e8bd
000002b0: 2deb a8be 87ac 253f 3c9c 083f bcb7 aabe
000002c0: 08aa 5abe 30a9 12bd 922a 233f e90d c1be
000002d0: 75b1 c13e bf61 26be 795e 2dbe 6a5c 123e
000002e0: 3849 2f3f 2640 aebe 4855 35be 1cec 7a3f
000002f0: ec8f 1fbe c21d bab9 f8de 54bd 548c 94be
00000300: 6ffb b5bd 5f49 1ebf 098b d63e b17e 253f
00000310: 694d f4bc 3017 213e d05a 12be 7497 b1be
00000320: efef 7f3e d149 9f3e aac1 b0be 027c bd3e
00000330: b717 2abf 7deb 7b3e 814a cebd ac35 b0bd
00000340: 0130 b43e b9ca 70bd 8656 a53e 409d 04be
00000350: b2ff 85be 7e3e 94bc dad4 173f 7e6b 403d
00000360: 2049 b43e b68b 823e 0e5c e1bc 9205 14bf
00000370: 05e2 f3bd 27df 473e 992f ea3e 804d a03e
00000380: 1327 423e c89b 863e c945 32be e60e 4e3f
00000390: 984f 8d3e 9912 69bc 4301 723e 69a9 1d3c
000003a0: d38b cabe 160a 083e 3594 403f a801 2d3f
000003b0: 9474 bf3e 5a26 223e 49a2 3c3e 8c7f c53c
000003c0: 5f28 063f f252 2d3e 2754 37bb 23e6 e13e
000003d0: f6ac 9bbd 8cea 5e3e b619 e7bc c058 9c3e
000003e0: 6dfb bf3d 90de 98be 89af df3d 7069 84bd
000003f0: 2b8f 0a3f 9ab6 7cbe e323 8b3e 296b 463e
0.5544508 -0.121087335 -0.180579 0.67745674 0.4590927 0.34343144 0.6797899 0.18327338
-0.6730596 0.6224849 0.9751053 0.7139699 0.27197963 0.56711197 0.19341464 0.27267486
-0.10218319 0.4069089 0.6999766 0.2621713 -0.2062332 -0.08488937 0.85406375 -0.4706973
-0.6952015 -0.033511903 0.6632419 -0.14641106 -0.3245762 0.115968525 0.27997148 0.62838537
0.17432791 0.2580618 0.120608695 -0.6388733 0.34849718 -0.35667008 -0.20292698 0.25317058
-0.79518193 0.035976045 0.46471936 -0.23194095 0.06433304 -0.26318395 -0.03777522 -0.7533948
-0.45460674 -0.05426224 -0.019144071 0.83090913 -0.25044435 -0.3909073 0.34617233 0.23209971
-0.44159722 0.6780185 0.02845338 0.5177091 0.059441775 -0.1576543 -0.08547764 0.6060159
0.32454395 0.13019778 0.35721165 0.09932503 0.747331 -0.2646162 0.2744962 -0.2577379
-0.15499802 -0.24653512 -0.15755378 0.5230643 0.50366646 0.80147094 0.66848934 0.5529117
-0.29635 -0.06390406 0.18990098 0.47468388 0.1717488 -0.055574454 0.53369004 -0.1212079
-0.17269011 0.07076346 0.06364315 1.1236074 0.3475125 -0.42913252 0.007515007 0.038430113
0.35586256 0.19289176 0.012405651 -0.39780325 0.46299586 0.22998746 -0.7043272 0.2563778
0.2600548 -0.24522147 0.40093452 0.65442413 -0.7922085 0.3742717 -0.37487718 -0.105216466
-0.053346563 0.26344717 0.59758186 0.39258498 0.055080235 0.56247824 0.5850652 -0.2015426
0.88225466 0.020709159 -0.2975988 0.6943129 -0.19105156 -0.3695359 0.4621764 -0.36126447
0.3264586 0.47280994 0.15821235 0.22697306 0.21448927 -0.27971685 0.016939986 -0.25165817
-0.5734947 0.13149954 0.39171255 0.3967962 0.6247435 0.97164 0.83034843 0.71688074
0.37192303 -0.38828084 -0.11565553 -0.020644639 -0.21772243 -0.4247637 0.20066544 0.25288275
0.49802455 0.3045616 -0.037415057 -0.27382052 0.8342003 0.3117312 0.21884705 0.4984553
0.050844364 0.34716856 -0.23953229 0.26068997 0.18628891 0.25014675 -0.102519736 -0.065055564
0.22185032 -0.261115 0.54708093 -0.11342629 -0.32991925 0.6471638 0.53363395 -0.33343303
-0.21353924 -0.03580588 0.6373683 -0.37705925 0.378307 -0.16248225 -0.1693057 0.14293066
0.684711 -0.34033316 -0.17708313 0.98016524 -0.15582246 -0.00035498856 -0.051970452 -0.29013312
-0.08885848 -0.61830705 0.4190295 0.6464644 -0.029822068 0.15731502 -0.14292455 -0.34685862
0.24993871 0.31111005 -0.34522754 0.37008673 -0.66442436 0.2460155 -0.10072804 -0.08603987
0.35192874 -0.05878708 0.32292575 -0.12950611 -0.26171643 -0.018096205 0.5930916 0.046977513
0.3521204 0.25497216 -0.027509715 -0.57821 -0.11908344 0.1951872 0.4573944 0.31309128
0.18960218 0.26290727 -0.17409433 0.80491483 0.27599788 -0.014225625 0.23633294 0.00962291
-0.39559802 0.13285097 0.75226146 0.6758065 0.3739363 0.15834942 0.18421282 0.02410867
0.5240535 0.16926172 -0.0027973743 0.44120893 -0.07601349 0.2176916 -0.028210502 0.3053646
0.093741275 -0.29857302 0.109221525 -0.06465423 0.54124707 -0.24679032 0.27175817 0.19376816

l1.bias f4 [16]
00000000: 68ae a63f d736 363f 8e08 7b3f 677e 953f
00000010: 773e 933f 92c8 143f cca6 323f 62f9 4f3f
00000020: b3c9 413f e577 843f fa27 bd3f 943e 5e3f
00000030: c895 9f3f f66e f03f 4085 9d3f 9ab8 a93f
1.3021975 0.7117743 0.9805993 1.16792 1.1503438 0.58118546 0.6978576 0.812399
0.75698394 1.0349089 1.4777825 0.86814237 1.2467585 1.8783863 1.230629 1.3259461

l2.weight f4 [16, 16]
00000000: 1e79 533f 1592 af3f 76f8 903f b7bf 8c3f
00000010: 34e1 56bf 2143 d93e 769e 803f b375 c63f
00000020: 3ce9 1540 4703 bcbd 57e9 823e b6b8 823f
00000030: 4432 15bf b31e 43be d398 1bbe 090d 9dbe
00000040: 33e3 793f fe6a a43e 07db 87bf 4cd7 e53e
00000050: 752a 703f 0098 653f a2b3 1f3f a3d4 a83e
00000060: 66a0 303f 3e81 04bd a01b c23f afff dfbe
00000070: d09e b53f d311 983f 09ad 7abf bbfc 19be
00000080: 9dc4 7d3d 0faf edbc 8f52 a43f 8e41 0d3f
00000090: e6ae 5bbf e4ec 1640 b5a7 593f 8b04 c43f
000000a0: e40e cf3f 8166 0940 bf32 88bf 3301 5ebe
000000b0: 4665 a53f 1721 2fbd 48ca 99bc 8835 7a3f
000000c0: 78cd fd3f e50e 9a3f 9117 b93d ce05 ec3f
000000d0: 299f 0cbf 7553 373f c53e fcbe a770 443f
000000e0: 923b 26bf 05e7 4ebf ddd8 963f dc27 683f
000000f0: 3078 d53f 7c77 2c3f ea8d 86bf 4b12 54be
00000100: 1812 86bf d2a9 983e 8583 41bf 71db d23f
00000110: e9d7 833f 2c85 c03d e2d8 f33e 2362 b93f
00000120: 6c0f 97be d486 c03f d866 2e3f 0a76 c13f
00000130: 7059 41bd 084f 513f 2070 9abd e581 bfbe
00000140: de0b 753f dcb4 693d ee00 af3f f5c6 c13d
00000150: 52fc 1fbf 947d 62bd e439 a33e 57af 58be
00000160: 0b27 693e 73b1 c2be 70b8 dd3f fc15 5d3c
00000170: a98a c5be 818e c93f ae92 0f40 2ce8 eb3e
00000180: 788c 43be d8df ab3f 7565 863f 1cef ca3f
00000190: e015 5b3f 8330 56bf f507 1e3f ae94 3cbe
000001a0: a34d 09be 9499 f53e f1de a5be 815d 283f
000001b0: 42f6 6dbe 01a5 523f 99a5 62bf 4dfc 993d
000001c0: fdcb 4fbe bde0 e3be 2fe3 d03f 603d 443f
000001d0: 7d68 0140 2017 e5be 6598 aebe 4742 523f
000001e0: 0f4e a83f f523 7b3f 01a3 96bd 8034 463f
000001f0: 7e21 fdbe a4d4 743f 6ec1 e33f 26c2 bcbd
00000200: d020 18be c3ca c83f c847 5c3f 7bf9 663f
00000210: 54dc 0dbf efb0 0ebf e4ed f43f d714 ee3e
00000220: 65a7 2fbf ab8a 14bf 4b01 883f 0c98 54bd
00000230: 6e1d 65be 2161 c93f b816 013f ea54 903f
00000240: 4453 a33f 39a6 213e 5f48 66be 4ef4 25bf
00000250: 941d e73f 1ab4 53bf 238c ae3f 3829 79bf
00000260: 79ee 893f 8b1c 143f b5ce df3e 7ad4 2b3e
00000270: cde5 5cbe 8365 a33e 00ab ba3f e34b 563f
00000280: a88c b53f 2cdd 47bf 8998 73bf 9aea f33e
00000290: bc7d d53d 783f 523e be63 6abe 9143 2a3f
000002a0: 7417 ee3f ead4 8d3f 0595 d63e f1ec f7be
000002b0: 88b3 683f cfe6 7a3f b61a e3bd dd9c aabe
000002c0: 9a62 d3bd f17e 6c3e 6548 593f ae2a 313f
000002d0: a543 0140 5249 9a3f 54fa 093f de2b ee3e
000002e0: f1eb 313f edcc 903e 3029 0f3f 7d32 c63f
000002f0: e2da febd 414d 0f3f 737f c53f 2f4f 6ebf
00000300: 115c 573f 1a47 b0bd 2d2d 763f 9cdc 8c3f
00000310: 9851 803f 91b9 eebe 0cfe 39bf 1303 433d
00000320: 5c19 c4be 62f2 a53f c83e 453f 409d 643d
00000330: 8696 cc3f f253 253f 0fa8 763e 459a ed3f
00000340: 2e10 40be 9c65 65be 0675 80be 7091 59be
00000350: 6b32 5c3e 0139 73be 0796 02bc e358 7abe
00000360: 0f0f 8fbe d469 e9bd f08e bebd f0b7 3a3e
00000370: 0a5e 273d d787 ee3d 19f3 6ebe ded4 a93d
00000380: fde1 6bbd 6abb 333f b071 00bf 7f3f 8cbf
00000390: 3356 693f 4f5e bd3f 883d fa3f 0b09 13bf
000003a0: 4a24 7c3f d2cf e43f d607 85be fb07 1ebf
000003b0: 6d6a a73f 2a69 af3f 234b 5f3e df4d fb3e
000003c0: e9b8 b13f 9955 8f3f 066b e0be bb11 0cbf
000003d0: e432 1cbf db54 b33f 789e 943f 147d 8c3f
000003e0: 3c97 993f 7119 233f b031 c73f 9b7a be3f
000003f0: 577e af3f 4f49 a0bf 3202 ed3e 41bd 0340
0.82606685 1.3716456 1.1325824 1.0996007 -0.8393738 0.42434028 1.0048358 1.5504669
2.3423605 -0.091803126 0.2556865 1.0212619 -0.58279824 -0.1905468 -0.15195017 -0.30674008
0.97612303 0.3211288 -1.0613717 0.4489082 0.93814784 0.8968506 0.6238347 0.3297473
0.6899475 -0.032349817 1.516468 -0.4374976 1.4189091 1.188044 -0.9792028 -0.15037815
0.061955083 -0.029014139 1.2837695 0.55178154 -0.8581375 2.3582087 0.85021526 1.5313886
1.6176419 2.1468813 -1.0640486 -0.21680145 1.2921531 -0.042756166 -0.018773213 0.9773793
1.9828329 1.2035795 0.09037698 1.8439271 -0.5493036 0.7161172 -0.4926664 0.76734394
-0.6493465 -0.8082126 1.1784931 0.9068582 1.6677303 0.6736982 -1.0512059 -0.20710103
-1.0474272 0.29817063 -0.7559131 1.6473218 1.0300266 0.094004005 0.47626406 1.4483074
-0.29503953 1.5041146 0.6812568 1.5114148 -0.047204435 0.8176122 -0.075409174 -0.3740379
0.9572123 0.057057247 1.3672159 0.09461776 -0.62494385 -0.055295542 0.31880105 -0.21160637
0.227688 -0.38026008 1.7321911 0.013494011 -0.38582352 1.5746614 2.2433276 0.4607557
-0.19096553 1.3427687 1.0499712 1.585422 0.85580254 -0.83667773 0.6173089 -0.18416092
-0.13408522 0.47968733 -0.32396653 0.65767676 -0.23238471 0.82283026 -0.8853393 0.07518826
-0.20292659 -0.445074 1.6319331 0.7665615 2.0220025 -0.44744205 -0.34100643 0.8213238
1.3148822 0.9810174 -0.07355309 0.7742386 -0.49439615 0.95636964 1.7793405 -0.092167184
-0.14856267 1.5686878 0.8604703 0.90224427 -0.5541432 -0.5573873 1.9135098 0.46500275
-0.686148 -0.5802409 1.0625395 -0.051902816 -0.22374508 1.5732766 0.5042529 1.1275914
1.2759786 0.15786065 -0.22488545 -0.64825904 1.8055902 -0.8269669 1.3636516 -0.9732852
1.0775901 0.57856053 0.43712392 0.16780272 -0.21572037 0.31913385 1.4583435 0.83709544
1.418355 -0.78071856 -0.95154625 0.47639924 0.104243726 0.20532024 -0.22889611 0.6650935
1.8600907 1.1080601 0.41910568 -0.4842296 0.9089894 0.98008436 -0.11089079 -0.33322802
-0.10321541 0.230953 0.8487609 0.6920575 2.0197537 1.2053626 0.53897595 0.46517843
0.69500643 0.28281346 0.5592222 1.5484158 -0.12444092 0.55977255 1.542952 -0.93089575
0.8412486 -0.086073115 0.9616268 1.1004825 1.00249 -0.4662595 -0.7265327 0.047610354
-0.38300598 1.2964594 0.7704892 0.055814028 1.5983436 0.64581215 0.24087547 1.8562704
-0.18756172 -0.22402042 -0.25089282 -0.21246886 0.21503608 -0.23752214 -0.00797034 -0.2444797
-0.27941176 -0.11397138 -0.09304607 0.18234229 0.040861167 0.11647003 -0.23334922 0.08292554
-0.057588566 0.70207846 -0.50173473 -1.0956877 0.91147155 1.4794406 1.9550028 -0.57435673
0.9849287 1.7875922 -0.2598254 -0.6173093 1.3079354 1.3703969 0.21806006 0.49082848
1.3884555 1.1197997 -0.43831652 -0.54714555 -0.6101515 1.4010271 1.1610861 1.0975671
1.1999278 0.63710696 1.5562038 1.4881166 1.3710431 -1.2522372 0.46290737 2.0584261

l2.bias f4 [16]
00000000: 215c 14be 0f47 023f 7c38 bc3d 0aa1 443f
00000010: 6082 8c3e 8ff5 703f 1fbb 3d3d 006f 0f3f
00000020: ce5e 093f 410d f83e badf 313f 8028 0b3f
00000030: 2744 9b3f 3db7 e7bd 0d06 723e 1b58 b2bd
-0.1448827 0.50889677 0.09190461 0.76808226 0.27443218 0.9412469 0.04632103 0.5602875
0.53660285 0.48447612 0.69482005 0.54358673 1.2130173 -0.11314247 0.2363512 -0.08708211

l3.weight f4 [73, 16]
00000000: 20ad 673d e834 1ebd 9f3c 0ec0 6304 7ebe
00000010: 775c ad3e 3615 c2bf 7f35 26be 3565 0c3d
00000020: 06dd 22bf fb91 eabd 35a7 1fbe 0da0 fc3e
00000030: 74e3 f6be a13f 4b3e 3624 3fbf d197 7fbe
00000040: c0fc f2be 66ad a13e f814 01bf 10ef fc3e
00000050: ac15 b2be 1734 3a3e ac9d 043e e7c4 64bf
00000060: bc26 ce3e 5916 9bbf 8032 80bf f8b4 0fc0
00000070: 4118 e03e 1f18 943d 5e65 4bbd cf4d 50bf
00000080: acaf 4c3e 942d 42bf 1fb7 81bd 4075 4abf
00000090: b866 f0bf d184 e6be 79cc c53d 99bc 16be
000000a0: 6b9b e4be 125c 973e d41a dcbe bd10 48bf
000000b0: 21bd 58bf 868a eb3d d897 653e 20e1 e4bd
000000c0: 3a5d ad3d f53c 7ebf 6808 afbe a732 fd3b
000000d0: 96fe f1be 4521 fb3c 384b fcbe 40fb 93be
000000e0: 72dd 4b3e 61e5 edbd 3e42 a1bf 540f f6bf
000000f0: 653e 923e f20e 71bd 613f aebf b261 713e
00000100: 1ef6 f2be 3720 96bd 2e78 adbf d1c6 56bf
00000110: cba3 723d 92f1 cf3b 3967 febf 54f0 f3bd
00000120: 8eb8 bbbf 057f b83e 7341 cbbe 754e b7be
00000130: 3061 7c3e f53a 82be 5954 b0be 60ad 6f3e
00000140: e842 2a3d 6b8a 94be 300b 87be 3e35 5abf
00000150: 8925 26bf a819 85be 6882 eebe 87c0 553e
00000160: fc9d 9dbf be04 d93d 00b2 863d ecb3 53be
00000170: 0c29 93bf 329a 39be 6dbe 7bbe a304 cebe
00000180: 4361 a9be aa36 a3bd fd4b 84bf 74ae 093f
00000190: 06bf 043f 8954 f6bf a9ad f7bd 10a9 12be
000001a0: 7d54 303e 8483 c0bf 157b 773e 386b 893d
000001b0: 2afb 263e b1f3 ff3b cbe6 f0bf 925d 80bf
000001c0: 6909 e53d d5da bb3d 1d50 f93e b723 e93e
000001d0: c68b 5bbf 739c d6bf b7e6 abbf 83d0 d4bf
000001e0: 7cc2 85bf 9a68 b2bf b0e1 803d c2e5 0ec0
000001f0: f46f 6abd 6869 283d 7012 b8bd 8b62 0a3f
00000200: a5dc 98bf 28a4 47bf bd1b cd3c 3349 50bf
00000210: 37c7 8fbf 68f8 903e 85bb 0cbf bdef 313e
00000220: 99eb a13d 7c14 cb3e 7479 92be c31b b3bd
00000230: a8da efbd 2093 2fbe 1285 f33e 8239 07c0
00000240: 7554 0cbe a0f4 5fbe 338b a6bd 57bc b7bf
00000250: f6d1 0d3e 05d2 68bf ce14 5cbd aa36 4b3e
00000260: e00b a1bf 1b12 81bc 7357 7f3e 6b94 c53d
00000270: 8809 03bf be73 02be a482 34be a548 b4bf
00000280: a896 bbbe 87a2 a3be d286 2bbf 7ed1 d1bf
00000290: 9eae a13e 623b 833c 7786 b13d 5126 90be
000002a0: 85bb 003d f40c 993d 1465 6abf e0ae 0a3e
000002b0: aa02 b1bf 3b2e a8bd 38ec c63e 3b75 08bf
000002c0: e768 20c0 a879 d5bf 6d31 fbbf 660e bdbf
000002d0: a213 98be e349 d93e 2fdf da3e f724 0c3f
000002e0: a69d 943e a801 1e3e e0af 9ebf c71b a23e
000002f0: 1cd5 353e c633 5b3e bbed b7be 0a41 e7bf
00000300: 4bc0 15bf e14b 9dbe ede6 9c3e 1994 93bf
00000310: 1cc1 4abf 6ed6 8a3c 97f8 f63b f246 cabe
00000320: 4ef1 0cbd 2064 fbbe e86d fabd 8649 88bf
00000330: d75a e7be 2215 1e3e 1248 cc3e 9e2f 34bf
00000340: ad3a fcbe ca35 f9bd 2270 a6be da1e acbc
00000350: 23ee 04c0 5075 a13e 9646 c9bf ea43 38bf
00000360: 90bf d4bb 7ede 3c3e a620 bfbe f543 f3be
00000370: 4e35 77bf c772 d73d 3c25 103d e5dd 1a3d
00000380: 78b0 2abe 778f 3ebf 8e83 67bd 0541 99bf
00000390: ece1 933e 3754 81bf a5df 24bf ede8 26bf
000003a0: b5ce 633e ee4c 953d 7e07 04bf 70ad 87bf
000003b0: 3a2f 84bf 5521 b7bc 4029 a33e cdb1 bc3e
000003c0: 7f85 bcbd dd52 a3bd 9511 33bf 6a82 803e
000003d0: 5dfd 2abf c322 d43e b722 01bf 8664 fcbf
000003e0: 0349 cabb fd56 613c cc32 01be 26dd 11c0
000003f0: 0b34 14be ef27 a1bd ac48 f7be 7d48 cd3e
0.05656159 -0.038624674 -2.22245 -0.24806361 0.33859608 -1.5162723 -0.16231345 0.034276206
-0.63618505 -0.11453625 -0.15591128 0.4934086 -0.48220408 0.19848491 -0.7466463 -0.24960257
-0.47458458 0.31577605 -0.5042262 0.4940114 -0.3478216 0.18183933 0.12950772 -0.8936295
0.40263927 -1.2116195 -1.0015411 -2.2454205 0.43768504 0.07231163 -0.04965722 -0.81368726
0.19988889 -0.75850797 -0.06333756 -0.7908516 -1.8781347 -0.45023206 0.09658141 -0.14720382
-0.44649825 0.29562432 -0.42989218 -0.7815054 -0.8466359 0.115010306 0.22421205 -0.11175752
0.08465047 -0.99311763 -0.341861 0.0077269855 -0.47264546 0.030655513 -0.49276137 -0.28902626
0.19908693 -0.11616016 -1.259834 -1.9223428 0.28563228 -0.058852144 -1.3613092 0.23572424
-0.47453398 -0.07330363 -1.3552301 -0.8389712 0.059238236 0.006345936 -1.9875251 -0.11911073
-1.4665697 0.36034408 -0.3969837 -0.35802045 0.24646449 -0.25435606 -0.34439352 0.23405981
0.041567713 -0.29011855 -0.26375723 -0.8523749 -0.64901024 -0.25996137 -0.46583867 0.20874225
-1.2313838 0.105966076 0.065769196 -0.20674103 -1.1496902 -0.18125227 -0.2458436 -0.40237913
-0.33082017 -0.07969411 -1.033569 0.5378182 0.5185398 -1.9244548 -0.1209367 -0.14322305
0.1721973 -1.5040135 0.24168046 0.067099035 0.16306749 0.0078110327 -1.8820432 -1.0028555
0.111834355 0.09172598 0.48693934 0.4553506 -0.8576015 -1.6766495 -1.3429784 -1.6626133
-1.0449977 -1.3938172 0.062930465 -2.2327733 -0.057235673 0.04111615 -0.08987892 0.54056615
-1.1942335 -0.7798486 0.02503764 -0.81361693 -1.123267 0.2831452 -0.5497363 0.17376609
0.07906265 0.39664066 -0.28608286 -0.087455295 -0.11711627 -0.17145967 0.47562462 -2.112885
-0.13704093 -0.21870661 -0.08132019 -1.4354352 0.13849625 -0.90945464 -0.05373078 0.19845071
-1.2581749 -0.015755704 0.24935703 0.09647449 -0.5118642 -0.12739465 -0.1762796 -1.4084669
-0.3663838 -0.31959936 -0.67002594 -1.6392057 0.31578535 0.016019527 0.08668225 -0.28154233
0.031428833 0.07473174 -0.9156048 0.13543272 -1.3828938 -0.08211943 0.38852096 -0.5330388
-2.5064027 -1.6677752 -1.9624459 -1.4770019 -0.2970248 0.42439184 0.427484 0.54743904
0.29026526 0.1543032 -1.2397423 0.31661817 0.17757076 0.21406469 -0.3592356 -1.8066723
-0.5849654 -0.30721954 0.30644932 -1.1529571 -0.7920091 0.016947951 0.0075369584 -0.39507252
-0.034409814 -0.49099827 -0.12227994 -1.0647438 -0.45186493 0.15437749 0.39898735 -0.7038516
-0.49263516 -0.121684626 -0.32507426 -0.021010805 -2.0770347 0.31534815 -1.5724666 -0.7197863
-0.0064925626 0.18444249 -0.37329596 -0.47512785 -0.9656571 0.10519939 0.03519176 0.03780927
-0.1666888 -0.7443766 -0.056521945 -1.1972967 0.28883302 -1.0103825 -0.64403754 -0.65199167
0.22246821 0.07290064 -0.5157393 -1.0599804 -1.0326912 -0.022354761 0.3186741 0.368544
-0.0920515 -0.07974789 -0.69948703 0.25099498 -0.6679285 0.4143277 -0.50443596 -1.9718177
-0.0061732545 0.01375365 -0.12617034 -2.2791228 -0.14472978 -0.07868945 -0.48297632 0.40094367

l3.bias f4 [73]
00000000: 3840 33be 2c9b 66be a321 0cbe 4306 5abd
00000010: e4fb 333e bb99 11be 18df 743d eb3f 4bbe
00000020: 3803 50bd 18d9 6f3d bcaa ffbc 60dc a63d
00000030: 6d72 80be 1c81 f9bd c3da 243d 97bf 8d3d
00000040: 1ff2 e1bd 1e99 2c3e 866e 353e e91c 80be
00000050: e9f6 62be 4d20 573d 6edb cbbd ac8b 703d
00000060: a154 203e 485c 1cbe 2e5d 0a3f 1441 103e
00000070: ef30 443e d16f 983e c74e 303e 1bff 063e
00000080: b602 31be 9050 8bbc da8f afbe 91f2 bdbe
00000090: 6e88 afbe dec3 d0bd c127 b5be fa84 8a3d
000000a0: 7275 253e e5e1 4bbe 8cd4 aebc b4d9 6fbe
000000b0: 767c 363d 65a7 a4be 7dba 88be f7a9 b4be
000000c0: 3821 73bc 1cd5 66bd c2a3 cdbd 96de 89bd
000000d0: 358b b03d a43b b3bd fb38 97be f0ae eabd
000000e0: 6b86 10be 21e2 18be 9b0a c3be 2765 0bbd
000000f0: 8013 a93e 9fc0 e2be 5d39 923d f11c 30bd
00000100: 2a67 883e 9400 4d3e 7906 2d3c 81ed a73c
00000110: ef92 913e a128 2ebe 14ad a13e cd07 e93c
00000120: 45d0 923e
-0.17504966 -0.22520131 -0.13684706 -0.053228628 0.17576557 -0.142188 0.05978307 -0.19848602
-0.05078432 0.058556646 -0.031209342 0.08147502 -0.250873 -0.12182829 0.04024769 0.069213085
-0.11032509 0.16855285 0.17717943 -0.25022057 -0.22164501 0.05252104 -0.09953962 0.05872695
0.15657283 -0.15269578 0.5404843 0.14087325 0.19159292 0.2977281 0.17217551 0.13183253
-0.1728619 -0.017006189 -0.34289438 -0.37099126 -0.34283775 -0.10193609 -0.35381892 0.067636445
0.16158083 -0.1991039 -0.021341585 -0.23422891 0.04455229 -0.32158962 -0.2670478 -0.35285923
-0.014839463 -0.05635558 -0.10041 -0.06731908 0.08620302 -0.0875161 -0.2953566 -0.11459148
-0.14113776 -0.14930011 -0.3809403 -0.034032013 0.3302269 -0.44287583 0.071398474 -0.04299635
0.26641208 0.20019752 0.010560625 0.020498993 0.28432414 -0.17007686 0.3157736 0.028446103
0.28674522
